…
  self.layers.add_module(str(len(self.layers)), Module1571(in_channels=out_channels, mid_channels=out_channels, out_channels=out_channels, num_layers=num_layers))\n        self.layers.add_module(str(len(self.layers)), Module1566())\n    def forward(self, x):\n        for layer in self.layers.children():\n            x = layer(x)\n        return x\n\nclass Model(torch.nn.Module):\n    def __init__(self):\n        super(Model, self).__init__()\n        self.resnet34 = torchvision.models.resnet34(pretrained=True)\n        # (Pdb) resnet34.features.children()\n        # ModuleList(\n        #   (0): Conv2d(3, 64, kernel_size=(7, 7), stride=(2, 2), padding=(3, 3), bias=False)\n        #   (1): BatchNorm2d(64, eps=1e-05, momentum=0.1, affine=True, track_running_stats=True)\n        #   (2): ReLU(inplace=True)\n        #   (3): MaxPool2d(kernel_size=3, stride=2, padding=1, dilation=1, ceil_mode=False)\n        #   (4): Sequential(\n        #     (0): BasicBlock(\n        #       (conv1): Conv2d(64, 64, kernel_size=(3, 3), stride=(1, 1), padding=(1, 1), bias=False)\n        #       (bn1): BatchNorm2d(64, eps=1e-05, momentum=0.1, affine=True, track_running_stats=True)\n        #       (relu): ReLU(inplace=True)\n        #       (conv2): Conv2d(64, 64, kernel_size=(3, 3), stride=(1, 1), padding=(1, 1), bias=False)\n        #       (bn2): BatchNorm2d(64, eps=1e-05, momentum=0.1, affine=True, track_running_stats=True)\n        #     )\n        #     (1): BasicBlock(\n        #       (conv1): Conv2d(64, 64, kernel_size=(3, 3), stride=(1, 1), padding=(1, 1), bias=False)\n        #       (bn1): BatchNorm2d(64, eps=1e-05, momentum=0.1, affine=True, track_running_stats=True)\n        #       (relu): ReLU(inplace=True)\n        #       (conv2): Conv2d(64, 64, kernel_size=(3, 3), stride=(1, 1), padding=(1, 1), bias=False)\n        #       (bn2): BatchNorm2d(64, eps=1e-05, momentum=0.1, affine=True, track_running_stats=True)\n        #     )\n        #   )\n        #   (5): Sequential(\n        #     (0): BasicBlock(\n        #       (conv1): Conv2d(64, 128, kernel_size=(3, 3), stride=(2, 2), padding=(1, 1), bias=False)\n        #       (bn1): BatchNorm2d(128, eps=1e-05, momentum=0.1, affine=True, track_running_stats=True)\n        #       (relu): ReLU(inplace=True)\n        #       (conv2): Conv2d(128, 128, kernel_size=(3, 3), stride=(1, 1), padding=(1, 1), bias=False)\n        #       (bn2): BatchNorm2d(128, eps=1e-05, momentum=0.1, affine=True, track_running_stats=True)\n        #       (downsample): Sequential(\n        #         (0): Conv2d(64, 128, kernel_size=(1, 1), stride=(2, 2), bias=False)\n        #         (1): BatchNorm2d(128, eps=1e-05, momentum=0.1, affine=True, track_running_stats=True)\n        #       )\n        #     )\n        #     (1): BasicBlock(\n        #       (conv1): Conv2d(128, 128, kernel_size=(3, 3), stride=(1, 1), padding=(1, 1), bias=False)\n        #       (bn1): BatchNorm2d(128, eps=1e-05, momentum=0.1, affine=True, track_running_stats=True)\n        #       (relu): ReLU(inplace=True)\n        #       (conv2): Conv2d(128, 128, kernel_size=(3, 3), stride=(1, 1), padding=(1, 1), bias=False)\n        #       (bn2): BatchNorm2d(128, eps=1e-05, momentum=0.1, affine=True, track_running_stats=True)\n        #     )\n        #   )\n        #   (6): Sequential(\n        #     (0): BasicBlock(\n        #       (conv1): Conv2d(128, 256, kernel_size=(3, 3), stride=(2, 2), padding=(1, 1), bias=False)\n        #       (bn1): BatchNorm2d(256, eps=1e-05, momentum=0.1, affine=True, track_running_stats=True)\n        #       (relu): ReLU(inplace=True)\n        #       (conv2): Conv2d(256, 256, kernel_size=(3, 3), stride=(1, 1), padding=(1, 1), bias=False)\n        #       (bn2): BatchNorm2d(256, eps=1e-05, momentum=0.1, affine=True, track_running_stats=True)\n        #       (downsample): Sequential(\n        #         (0): Conv2d(128, 256, kernel_size=(1, 1), stride=(2, 2), bias=False)\n        #         (1): BatchNorm2d(256, eps=1e-05, momentum=0.1, affine=True, track_running_stats=True)\n        #       )\n        #     )\n        #     (1): BasicBlock(\n        #       (conv1): Conv2d(256, 256, kernel_size=(3, ",
                "\nclass Model(torch.nn.Module):\n    def __init__(self):\n        super().__init__()\n        self.conv1 = torch.nn.Conv2d(16, 20, 3, stride=1, padding=1)\n        self.conv2 = torch.nn.Conv2d(20, 24, 3, stride=1, padding=1)\n        self.conv3 = torch.nn.Conv2d(24, 28, 3, stride=1, padding=1)\n    def forward(self, x1):\n        v1 = self.conv1(x1)\n 
…
